Namespace(active_random=0, batch_size=100, batch_size_test=10, dataset='mini_imagenet', dataset_root='datasets', dec_lr=15000, decay_interval=10000, exp_name='minimagenet_N5_S5', iterations=8000, log_interval=20, lr=0.001, metric_network='gnn_iclr_nl', momentum=0.5, no_cuda=False, save_interval=300000, seed=1, test_N_shots=1, test_N_way=5, test_interval=2000, test_samples=30000, train_N_shots=1, train_N_way=5, unlabeled_extra=0)
Using GPU : 0 from 4 devices
Batch size: 100
Initiallize new Network Weights for enc_nn
Initiallize new Network Weights for metric_nn
EmbeddingImagenet(
  (conv1): Conv2d(3, 64, kernel_size=(3, 3), stride=(1, 1), padding=(1, 1), bias=False)
  (bn1): BatchNorm2d(64, eps=1e-05, momentum=0.1, affine=True, track_running_stats=True)
  (conv2): Conv2d(64, 96, kernel_size=(3, 3), stride=(1, 1), bias=False)
  (bn2): BatchNorm2d(96, eps=1e-05, momentum=0.1, affine=True, track_running_stats=True)
  (conv3): Conv2d(96, 128, kernel_size=(3, 3), stride=(1, 1), padding=(1, 1), bias=False)
  (bn3): BatchNorm2d(128, eps=1e-05, momentum=0.1, affine=True, track_running_stats=True)
  (drop_3): Dropout2d(p=0.4)
  (conv4): Conv2d(128, 256, kernel_size=(3, 3), stride=(1, 1), padding=(1, 1), bias=False)
  (bn4): BatchNorm2d(256, eps=1e-05, momentum=0.1, affine=True, track_running_stats=True)
  (drop_4): Dropout2d(p=0.5)
  (fc1): Linear(in_features=6400, out_features=128, bias=True)
  (bn_fc): BatchNorm1d(128, eps=1e-05, momentum=0.1, affine=True, track_running_stats=True)
)
MetricNN(
  (gnn_obj): GNN_nl(
    (layer_w0): Wcompute(
      (conv2d_1): Conv2d(133, 192, kernel_size=(1, 1), stride=(1, 1))
      (bn_1): BatchNorm2d(192, eps=1e-05, momentum=0.1, affine=True, track_running_stats=True)
      (conv2d_2): Conv2d(192, 192, kernel_size=(1, 1), stride=(1, 1))
      (bn_2): BatchNorm2d(192, eps=1e-05, momentum=0.1, affine=True, track_running_stats=True)
      (conv2d_3): Conv2d(192, 96, kernel_size=(1, 1), stride=(1, 1))
      (bn_3): BatchNorm2d(96, eps=1e-05, momentum=0.1, affine=True, track_running_stats=True)
      (conv2d_4): Conv2d(96, 96, kernel_size=(1, 1), stride=(1, 1))
      (bn_4): BatchNorm2d(96, eps=1e-05, momentum=0.1, affine=True, track_running_stats=True)
      (conv2d_last): Conv2d(96, 1, kernel_size=(1, 1), stride=(1, 1))
    )
    (layer_l0): Gconv(
      (fc): Linear(in_features=266, out_features=48, bias=True)
      (bn): BatchNorm1d(48, eps=1e-05, momentum=0.1, affine=True, track_running_stats=True)
    )
    (layer_w1): Wcompute(
      (conv2d_1): Conv2d(181, 192, kernel_size=(1, 1), stride=(1, 1))
      (bn_1): BatchNorm2d(192, eps=1e-05, momentum=0.1, affine=True, track_running_stats=True)
      (conv2d_2): Conv2d(192, 192, kernel_size=(1, 1), stride=(1, 1))
      (bn_2): BatchNorm2d(192, eps=1e-05, momentum=0.1, affine=True, track_running_stats=True)
      (conv2d_3): Conv2d(192, 96, kernel_size=(1, 1), stride=(1, 1))
      (bn_3): BatchNorm2d(96, eps=1e-05, momentum=0.1, affine=True, track_running_stats=True)
      (conv2d_4): Conv2d(96, 96, kernel_size=(1, 1), stride=(1, 1))
      (bn_4): BatchNorm2d(96, eps=1e-05, momentum=0.1, affine=True, track_running_stats=True)
      (conv2d_last): Conv2d(96, 1, kernel_size=(1, 1), stride=(1, 1))
    )
    (layer_l1): Gconv(
      (fc): Linear(in_features=362, out_features=48, bias=True)
      (bn): BatchNorm1d(48, eps=1e-05, momentum=0.1, affine=True, track_running_stats=True)
    )
    (w_comp_last): Wcompute(
      (conv2d_1): Conv2d(229, 192, kernel_size=(1, 1), stride=(1, 1))
      (bn_1): BatchNorm2d(192, eps=1e-05, momentum=0.1, affine=True, track_running_stats=True)
      (conv2d_2): Conv2d(192, 192, kernel_size=(1, 1), stride=(1, 1))
      (bn_2): BatchNorm2d(192, eps=1e-05, momentum=0.1, affine=True, track_running_stats=True)
      (conv2d_3): Conv2d(192, 96, kernel_size=(1, 1), stride=(1, 1))
      (bn_3): BatchNorm2d(96, eps=1e-05, momentum=0.1, affine=True, track_running_stats=True)
      (conv2d_4): Conv2d(96, 96, kernel_size=(1, 1), stride=(1, 1))
      (bn_4): BatchNorm2d(96, eps=1e-05, momentum=0.1, affine=True, track_running_stats=True)
      (conv2d_last): Conv2d(96, 1, kernel_size=(1, 1), stride=(1, 1))
    )
    (layer_last): Gconv(
      (fc): Linear(in_features=458, out_features=5, bias=True)
    )
  )
)
Train Iter: 0	Loss_d_metric: 1.607520
Train Iter: 20	Loss_d_metric: 1.687855

**** TESTING WITH val ***
108 correct from 500 	Accuracy: 21.600%)
*** TEST FINISHED ***


**** TESTING WITH test ***
103 correct from 500 	Accuracy: 20.600%)
*** TEST FINISHED ***


**** TESTING WITH train ***
12 correct from 100 	Accuracy: 12.000%)
*** TEST FINISHED ***
…
